__________________________________________________________________________________________________
Layer (type)                    Output Shape         Param #     Connected to
==================================================================================================
main_input (InputLayer)         (None, 4027)         0
__________________________________________________________________________________________________
mask_input (InputLayer)         (None, 40, 4027)     0
__________________________________________________________________________________________________
embedding_1 (Embedding)         (None, 4027, 100)    200000000   main_input[0][0]
__________________________________________________________________________________________________
lambda_1 (Lambda)               (None, 40, 100)      0           mask_input[0][0]
                                                                 embedding_1[0][0]
__________________________________________________________________________________________________
dropout_1 (Dropout)             (None, 40, 100)      0           lambda_1[0][0]
__________________________________________________________________________________________________
dropout_2 (Dropout)             (None, 40, 100)      0           lambda_1[0][0]
__________________________________________________________________________________________________
conv1d_1 (Conv1D)               (None, 40, 512)      154112      dropout_1[0][0]
__________________________________________________________________________________________________
conv1d_2 (Conv1D)               (None, 40, 512)      205312      dropout_2[0][0]
__________________________________________________________________________________________________
max_pooling1d_1 (MaxPooling1D)  (None, 8, 512)       0           conv1d_1[0][0]
__________________________________________________________________________________________________
max_pooling1d_2 (MaxPooling1D)  (None, 8, 512)       0           conv1d_2[0][0]
__________________________________________________________________________________________________
global_average_pooling1d_1 (Glo (None, 100)          0           lambda_1[0][0]
__________________________________________________________________________________________________
flatten_1 (Flatten)             (None, 4096)         0           max_pooling1d_1[0][0]
__________________________________________________________________________________________________
flatten_2 (Flatten)             (None, 4096)         0           max_pooling1d_2[0][0]
__________________________________________________________________________________________________
dense_1 (Dense)                 (None, 4096)         413696      global_average_pooling1d_1[0][0]
__________________________________________________________________________________________________
average_1 (Average)             (None, 4096)         0           flatten_1[0][0]
                                                                 flatten_2[0][0]
                                                                 dense_1[0][0]
__________________________________________________________________________________________________
dropout_3 (Dropout)             (None, 4096)         0           average_1[0][0]
__________________________________________________________________________________________________
dense_2 (Dense)                 (None, 25)           102425      dropout_3[0][0]
==================================================================================================
Total params: 200,875,545
Trainable params: 200,875,545
Non-trainable params: 0
__________________________________________________________________________________________________

Epoch 1/40
748/748 [==============================] - 427s 570ms/step - loss: 133.0588 - acc: 0.3811
…
